snake game with a neural network/model1.pth (torch, 17609 bytes, 4 tensors)

linear1.weight f4 [256, 11]
00000000: 5d06 393e 139d 02bf c5ae a63e 33be 79be
00000010: 2af8 d0bd 1c31 9c3b fcff cc3c ac31 57bd
00000020: 8406 a13c ef16 82be baf8 75be ef0a a63e
00000030: bcc1 463e 1cf0 153f 684a 1bbe a8a2 d4bd
00000040: 9e36 15be 8799 42be b265 0e3f 91ba ff3e
00000050: 3a95 043f c5be 033f 24ad 16bf 8e8f b63e
00000060: dab6 c13d 2682 00bf 9c22 dd3e eb7e a33e
00000070: 551f ddbe 270f c2be e734 923e da7d a73e
00000080: 3c6d 84be a0ef dcbc 28a9 5f3e 706c 84be
00000090: f44f 81be 22cf 89be c515 93be 223b 1fbe
000000a0: a205 3ebe 1039 98bd a35c 32bd d838 b0bd
000000b0: ddbd 0a3d f572 183f 833f 3fbe 1b51 a3be
000000c0: e8ee c33d a479 91be 2279 973e 06ac 1dbe
000000d0: d1cd c53e 6d22 023f 666b 1f3e 196b 0abd
000000e0: 6234 a3be f030 a0be 8735 41be 8486 88be
000000f0: c2d9 9fbe b27c a03e ee13 90be d9bc febe
00000100: 1e9e 9d3e 804b 86be b576 df3d 0604 cf3d
00000110: db80 fe3e 6651 793e 9aa8 f5be 8851 b0be
00000120: 29c3 dc3c 464f c9bd 29c8 043f 8c55 f13e
00000130: 1362 263d 6193 9cbe a6e0 51bd fd50 d73e
00000140: a721 ae3e 1531 81be 8c37 123e 215a 773e
00000150: ff1b 02be d55c 35bf 9f6f b9bd f120 38be
00000160: c1ba fe3d a3ee abbe e1b4 8fbe 787c 803e
00000170: 3a46 b6be c2dc ae3e d203 8ebe 24bb e2bb
00000180: db2c 24bf b05a a73c 665a 22bf a944 0dbf
00000190: 5ce3 7ebd eeeb 0f3f 0022 8fbc 62c2 383e
000001a0: 6e86 bbbe 808e 9a3e 9e22 1d3e fcf7 973e
000001b0: 0ee8 07bf cc89 80bb 2228 823d 16b6 b53e
000001c0: 4a96 3cbd 07d3 24bd 69b0 91be f93c 0bbd
000001d0: 3698 19be e356 403c f028 803e 98b5 1c3e
000001e0: 920c 5e3e eba9 ca3e 7810 5b3d 3aef 873c
000001f0: d153 01be dd14 fb3e 0af1 f2bd fa5a 0b3e
00000200: 36e9 be3e b93a 5cbe 2504 f7be 4824 3f3c
00000210: 09f8 89be 4fe5 04bf 7670 033f 571a c3be
00000220: 2032 f53d cb67 363e c13a 0e3e 6190 e1be
00000230: 345f 1cbd ab25 f53d 604d 6b3d 90db a4bd
00000240: 9431 70bd 729b 94be e17d 99be 1826 8a3d
00000250: 88c6 4bbe 8005 4f3c 12ed 4dbe e07c 8bbc
00000260: 7228 5dbe fa5b 71be 83a8 a33d 1d8d 0abe
00000270: e39b ba3c 6d5a 6abe dc5f 5e3e 3353 60be
00000280: e39f 143c 1b92 29be a83f 443c 327f 92be
00000290: 10e3 54be 6af3 26be 72cf 443e 7167 e2be
000002a0: dd0f fe3d 96fa 1d3e 9994 81be c51d 0dbf
000002b0: ca6d 99be 16f7 dcbe 1231 e13d ac80 563e
000002c0: 6e7c 393d 7b92 b0be 3d73 e6be 9269 363f
000002d0: f3ec 1dbf ad7d e2be b168 ef3e c991 ef3c
000002e0: 37b0 adbf 215e 6ebf 52f9 09be fcf7 46be
000002f0: 3e83 52be c0cf 813e 99a4 2dbe 5dde 96be
00000300: 6b43 2cbe 54a5 c73c aca2 8ebe e97f 95be
00000310: 02c9 a1bc 9b56 81be f450 3a3f e7dc b33c
00000320: 5b9c c2be e3a3 9cbc 1bc4 fa3e 7abc 0ebe
00000330: 7bfc 11be 44b2 693d 7a43 debe 2353 ea3d
00000340: 5d4f ee3d 80d0 f13d ac61 993c f845 d6bd
00000350: 58bc 8bbe eafe 91be 0721 92be d94d 9fbe
00000360: 096a 293e b167 1d3e c7d2 663e c65f 0f3e
00000370: 5406 ca3e c705 9c3e aef2 633e e9a6 9abd
00000380: 5e52 66bd f110 a2bd b8e5 12be 256f d93e
00000390: e1fb cc3e 07b4 c83e 7f10 c33e e5a9 3e3e
000003a0: 27d3 5abe 6c3e 30bf 714e d1be 96c5 993e
000003b0: da00 b8bd 142e 853e 49bc 0ebf f3cc 533e
000003c0: 196b aabe fc20 7cbe 4044 b23e eb08 41be
000003d0: 526d aebe b692 143f 3f38 8b3e 1638 98bd
000003e0: 26b0 b8be 2cf1 05bf 0643 9bbe 1863 0c3e
000003f0: 1b42 82be 710b 92be 2ef2 363e 9bf1 d4be
0.18068834 -0.51020926 0.32555214 -0.24388961 -0.102035835 0.0047665965 0.025024407 -0.052537605
0.019656427 -0.25408122 -0.24020663 0.32430217 0.19409841 0.585695 -0.15165102 -0.10382587
-0.14571616 -0.19003879 0.55623925 0.49947026 0.517902 0.51462966 -0.5885794 0.356564
0.09458704 -0.5019859 0.43190467 0.31932768 -0.43187967 -0.37902185 0.28555986 0.32713205
-0.2586459 -0.02696973 0.21841872 -0.2586398 -0.25256312 -0.26915842 -0.28727546 -0.15549901
-0.18556836 -0.07432759 -0.043545377 -0.08604592 0.033872474 0.5955041 -0.18676572 -0.31897816
0.09567052 -0.28413117 0.29584605 -0.15397653 0.38633588 0.5083378 0.15568313 -0.033793543
-0.31875902 -0.31287336 -0.18868075 -0.26665127 -0.31220824 0.31345135 -0.28140205 -0.49753454
0.30784696 -0.26229477 0.109113134 0.10108189 0.49707684 0.24347457 -0.47980195 -0.34437203
0.026948528 -0.09829573 0.5186792 0.4713558 0.040620875 -0.3058119 -0.051239632 0.42053977
0.3401005 -0.2523276 0.14279002 0.24155475 -0.12705992 -0.70844775 -0.09054493 -0.17981316
0.12437964 -0.33580503 -0.28067687 0.25094962 -0.35600454 0.341528 -0.2773729 -0.0069192816
-0.64130944 0.020428985 -0.6341919 -0.5518289 -0.062228546 0.56219375 -0.017472267 0.18042901
-0.36626 0.30186844 0.15345237 0.29681385 -0.5308846 -0.0039226767 0.06355311 0.35490483
-0.046041764 -0.040240314 -0.28454903 -0.033993695 -0.1499947 0.011739465 0.25031233 0.15303648
0.21684483 0.39582762 0.053482503 0.016593564 -0.1262963 0.49039355 -0.11862381 0.13608924
0.372873 -0.21506776 -0.4824535 0.011666365 -0.26947048 -0.519124 0.51343477 -0.38106033
0.11972451 0.17813031 0.138896 -0.44055465 -0.03817673 0.11970075 0.057446837 -0.08049691
-0.05864103 -0.29024845 -0.2997885 0.06745547 -0.19899952 0.012635589 -0.20109966 -0.017027318
-0.2159746 -0.23570243 0.079911254 -0.13530393 0.02277941 -0.22886057 0.21716255 -0.21906738
0.009071323 -0.16559641 0.011978067 -0.28612667 -0.20789742 -0.16303793 0.19219759 -0.44219545
0.124053694 0.15427622 -0.25308684 -0.5512355 -0.29966575 -0.43157262 0.109956875 0.20947522
0.04528468 -0.34486756 -0.45009795 0.7125484 -0.6168968 -0.44236508 0.4675956 0.02924432
-1.3569402 -0.9311238 -0.13474014 -0.19430536 -0.20557877 0.25353813 -0.1695732 -0.29466525
-0.16822593 0.024370827 -0.27858484 -0.2919915 -0.019749168 -0.25261387 0.72779775 0.02195592
-0.38009915 -0.019121116 0.48977742 -0.13939086 -0.1425647 0.057054773 -0.43410856 0.11441638
0.11636231 0.11807346 0.018723331 -0.10462564 -0.27292132 -0.28514796 -0.28540823 -0.3111408
0.16544355 0.15371586 0.22541343 0.14001378 0.39457953 0.30473158 0.22260544 -0.07551367
-0.056230895 -0.079133876 -0.14345443 0.4246761 0.40035918 0.3919985 0.38098523 0.18619497
-0.2136961 -0.6884525 -0.4088016 0.3003356 -0.089845374 0.26011717 -0.5575605 0.2068365
-0.33284834 -0.24621958 0.34817696 -0.18851058 -0.3406778 0.58036363 0.2719135 -0.074325725
-0.3607189 -0.52321124 -0.30324572 0.13709676 -0.2544106 -0.28524354 0.17865822 -0.4159058

linear1.bias f4 [256]
00000000: c562 423e 2e8e f0be 1aaf b5bd 833c 94bd
00000010: 09b2 efbd b80f 22be aa06 dabd 6206 d03e
00000020: ad52 9f3d 5a83 5c3e 66c8 90be 708c b6be
00000030: 2013 2b3f 08ce 38be 0c7d abbe 70c2 c13d
00000040: 3a00 073f 63cd 92bd d8fe b1bd ef76 88be
00000050: d462 d6be 4add c23c 64f6 20be 2154 fc3e
00000060: 69bc 1bbe 09c4 3a3f 51e5 02be 14b7 26be
00000070: e630 45bd a1d1 bfbe 8c93 b5be 69dc 2e3e
00000080: 3615 dfbd 4fcd bebe e919 1fbc 9da2 d0bd
00000090: 4740 1bbd f095 03bf 986a e7be b32a 87be
000000a0: 27ba 5cbe f47f a6bd 5099 b7be fed2 8d3e
000000b0: d981 14be 044c 293d 7506 c7bd fe11 9abe
000000c0: 084e 223d aebf edbe 0b02 323e b478 7ebe
000000d0: 037a 92be a0fc 00bf a6ee 12bd 8724 90be
000000e0: d0ab d3bd fbc7 1ebe 7d7c 9abe be8a ccbe
000000f0: 9633 8abe 29e6 7bbe ac44 8b3d 535f b0bd
00000100: 93a9 b3be 9f79 4dbd 6fb9 4b3d 9d83 cfbc
00000110: 61b3 21be 454b 7f3e ec67 1b3e 09ab e4bd
00000120: cc5a cc3e bd9c ed3d a3f2 c23c 6e72 2b3f
00000130: 850c 313f 18bf 15be ac00 9fbe e249 8fbe
00000140: 910c 63be 39f0 9f3e acaa 4bbe 5f8b 81be
00000150: 4694 9d3e 029c fb3d 05b2 afbe e577 6b3d
00000160: 955c 40be 07ed a53e df25 98be ad4f 853e
00000170: 41be bdbe 62d0 18be a000 50be 3537 56be
00000180: 39e5 813e 47df e03d 8435 b43d 3882 26be
00000190: d9ee 8abe 7350 d5be e19b d1be 9234 53be
000001a0: 8e47 acbe 7210 cabe 4e92 07be 94bd 133d
000001b0: 1477 b8bd 41bb 9abd fcdd 9f3d 4083 4b3f
000001c0: b40d a1be 07cc e03e ace4 dabd f2d0 97bd
000001d0: fbb7 f7be 259e d6be b390 83be 27d2 c9be
000001e0: c7fa c6be a382 d13e c00f c8be d147 6bbe
000001f0: ebe9 21be 259c 97be 9fed 153e 9d65 b7be
00000200: 8f09 19be da0e 0d3e ecf3 23bd 807c 013f
00000210: 743b 63be 55e5 82bc 1c9f 8dbd d157 a4be
00000220: 886a fc3e 2194 bebe 83d3 22be 48f9 bc3e
00000230: afc4 ddba 1bcd 09be 6f50 3fbe 381e 07bf
00000240: 6feb 6fbd 9198 f7be bbef 11bc 0a3a d9bd
00000250: 7399 35be 6d3c 283e fb74 dc3d ae22 59bd
00000260: 8f28 bbbe 7ed8 90be bd33 f83e d898 f2be
00000270: 8b25 02be a492 5bbe 066f a6be f669 a4be
00000280: 6891 a7be c575 043f 4bc7 263e a6b0 aa3d
00000290: 6b92 96bd 0820 52be f444 2a3d 849f 8dbe
000002a0: 6fb6 a8bc d627 2ebe 90ff ddbc e2ef d93e
000002b0: ba53 f7be bd1e 03be 7907 29be a4de 9ebe
000002c0: 890f 23bd f9ae d9be 1ac3 6f3d 1502 84be
000002d0: 7084 363f 8200 8d3d 4918 48bd c9db 34be
000002e0: bf6c 5abe 0cf8 1abf 5171 a3be 0f84 05be
000002f0: 4662 7e3e c989 9dbd 1917 e8be d025 9c3e
00000300: aca3 83be a756 5dbe 7e03 393e a5b4 1fbc
00000310: dd19 b33e a223 babd 5345 f6be 6e0a 393e
00000320: f7ec d8bd ad3b 87be bcb4 3dbd 1d2e 86be
00000330: b6c3 7cbb 0dbb d2be 03f0 babe b3d3 323e
00000340: 676a 8cbe bd20 61be b372 0b3f a15f 0bbe
00000350: 20f4 cbbc 8113 a33d c652 15be 8dd2 6fbe
00000360: e5e2 b0bd 7330 06be 6069 a33b 85b3 e4bd
00000370: da7c 183e e6aa 85be cd4b c43e 0876 acbe
00000380: a377 d6be e8fc 00bf 05ea 05be e73d 633f
00000390: f455 70bb ce2b b3bc 6270 d6bd acd4 16be
000003a0: cb03 b0bd ee14 e53d fa79 123f 6ad7 b8bd
000003b0: 5f3f afbe 6ac2 a5bd 62d1 89bd 34d2 58bd
000003c0: 1e49 5a3e d8ad 153e 6de7 54bd 08b7 48be
000003d0: bf9c a1be 30a5 9bbd a7e5 6ebe 38d2 8abe
000003e0: 8262 d8be 31b6 db3d a043 b9be 0f64 e43b
000003f0: 6719 abbe 9c37 afbe 5ac6 32bd 67c7 83be
0.1898299 -0.46983474 -0.088712886 -0.07238104 -0.117038794 -0.15826309 -0.10645802 0.4062987
0.07779441 0.21534482 -0.28277892 -0.3565402 0.6682606 -0.18047345 -0.3349384 0.09460914
0.5273472 -0.07168081 -0.08691186 -0.2665324 -0.41872275 0.02378716 -0.1571899 0.49282935
-0.15208592 0.72955376 -0.1278279 -0.16280776 -0.048142336 -0.37464622 -0.35464132 0.17076267
-0.108927175 -0.37266013 -0.009710767 -0.10187266 -0.037903097 -0.5140066 -0.45198512 -0.26399764
-0.21555386 -0.08129874 -0.35859156 0.27700037 -0.14502658 0.04133226 -0.097180285 -0.30091852
0.039625198 -0.46435302 0.17383592 -0.24850732 -0.28608713 -0.50385475 -0.035872124 -0.28152868
-0.10335505 -0.15505974 -0.30173102 -0.39949602 -0.26992482 -0.24599518 0.068002075 -0.08611932
-0.35090312 -0.050164815 0.04973739 -0.025331313 -0.15791084 0.24931057 0.15176362 -0.11165435
0.39913023 0.11602161 0.023797339 0.6697148 0.6915973 -0.14623678 -0.310552 -0.27986056
-0.22172762 0.31237963 -0.19889325 -0.25301644 0.30777186 0.122856155 -0.34315506 0.057487387
-0.18785317 0.324074 -0.29716393 0.2603735 -0.37059215 -0.14923242 -0.20312738 -0.20919497
0.25370196 0.10980087 0.0879927 -0.16260612 -0.2713535 -0.4166294 -0.4093924 -0.20625523
-0.33648342 -0.39465672 -0.13239405 0.036069468 -0.09007087 -0.07555247 0.07806012 0.79497147
-0.31455767 0.4390566 -0.10688147 -0.074129 -0.48382553 -0.4191753 -0.25696334 -0.39418146
-0.38863203 0.4091998 -0.39074516 -0.22976615 -0.15811889 -0.29611316 0.14641427 -0.35819712
-0.14945053 0.13775197 -0.040027544 0.50580597 -0.22190648 -0.015978495 -0.06915113 -0.3209825
0.49300027 -0.37222388 -0.15900998 0.36908937 -0.0016919578 -0.13457148 -0.18683027 -0.52780485
-0.058574136 -0.48358586 -0.008907254 -0.10606773 -0.17734317 0.164293 0.107645 -0.05301159
-0.3655438 -0.2829017 0.48476973 -0.47382236 -0.12709634 -0.21442658 -0.3250658 -0.32112092
-0.32728124 0.517422 0.16286962 0.08334474 -0.07352146 -0.20520031 0.041569665 -0.27660763
-0.020594804 -0.17007384 -0.0270994 0.4256583 -0.48306066 -0.12804694 -0.16506757 -0.31029236
-0.039809737 -0.42516306 0.058535673 -0.25782838 0.71295834 0.068848625 -0.048851285 -0.17661966
-0.21330546 -0.6053474 -0.3192239 -0.13038658 0.24842176 -0.07692296 -0.45330122 0.304976
-0.2571081 -0.21615086 0.18067738 -0.009747659 0.3498067 -0.09088828 -0.48099765 0.18070385
-0.105920725 -0.26412717 -0.04631494 -0.26207057 -0.0038568801 -0.41158333 -0.3651124 0.1746357
-0.2742493 -0.21985145 0.5447189 -0.13610698 -0.024896681 0.079627044 -0.14582357 -0.23420162
-0.08637027 -0.1310442 0.004986927 -0.11167053 0.14891377 -0.26106948 0.3833908 -0.336838
-0.4188815 -0.50385904 -0.13077553 0.8876633 -0.0036672326 -0.021871474 -0.10470654 -0.14729565
-0.085944735 0.11185633 0.5721737 -0.09025462 -0.34228036 -0.08093722 -0.0672939 -0.05293484
0.21316954 0.14617097 -0.051978517 -0.19601071 -0.315649 -0.075998664 -0.23329793 -0.2711351
-0.42262655 0.1072811 -0.36184406 0.0069699357 -0.33417818 -0.34222114 -0.043646194 -0.2573807

linear2.weight f4 [3, 256]
00000000: c492 843d f36e 66be 2a8b b33e c496 c0bc
00000010: e2c2 e2bc b21c dfbe 2255 5cbe 2f5a 753e
00000020: b807 283e 39ed 903e c2c9 d8bc bc78 28be
00000030: 9f43 be3e 8c7d e73c 3e80 93bd e331 63bd
00000040: 54f8 3a3f 7749 1ebd b78b a9be a4f4 a33c
00000050: 88a9 13be ab3b f73d 1f35 efbd 50c8 a43d
00000060: df1c 4b3e feea b93e 3a52 05bd e024 8d3e
00000070: 5f16 83bd c2f7 98bd cd86 b53d 37cc 2e3e
00000080: 54fe 17bd 7ee3 3fbd 28f1 62be 204d 7d3b
00000090: 4a27 72be a2ee b7bc 7541 b53c 0320 83bd
000000a0: 20eb d73d 3c82 c53e a7fe 94bd bb40 773e
000000b0: f182 733c b3a7 cf3e 6bc1 66be db81 e5bc
000000c0: ed02 643d 95a6 b13b 9f6a e63e af72 45bd
000000d0: 2185 2bbe cd98 c13b 1fbf 4c3e a117 32bd
000000e0: 423f 2dbe 208d d73c ecb3 3aba 3542 9cbd
000000f0: 4eb5 383e 01d4 84bd 14bd b33e 9bf5 803e
00000100: a620 a0bd 4f23 64be 26a1 74bc 38a0 a2be
00000110: 597c 51bd 6d8a 003e 4c4b 50be 57e4 b8be
00000120: 0d19 9d3e e0e6 1f3e cf66 a5bb 70bf b73e
00000130: 0e50 833e 8205 06bd 6fb9 d3bd 8b84 38bd
00000140: bd41 ac3b b8c0 223e 0d90 2ebc c140 1ebe
00000150: b11f c83e 395a 143f ccaf adbd 5561 253e
00000160: 7587 d4be c515 483e 10f2 97bc 4783 0c3f
00000170: 6ad1 19bc 7c88 25bc 4a57 d2bc 9d8d 2dbe
00000180: 190b fe3e d59a 27bf 4df9 a2be 8d7d 48bc
00000190: 5afd 273d 5134 373c 1254 113d 074f 24bf
000001a0: 53d5 9a3c 881d 0f3b 8d8a bcbc 566e 22bd
000001b0: 599b 0ebf 0dca c43c 4ccd 9b3e fee9 c33e
000001c0: 9102 02be c02f c03e 01c8 94bc b5bd 26bf
000001d0: 8a75 a5bd f842 e5bd 9106 083c c8b0 57bb
000001e0: f9b8 ffbd a849 ba3e d900 44bc 53ad 4dbe
000001f0: 429f d6bd 33c6 09bb cd0e f53c b9be 67be
00000200: a5ac 9dbe 17d9 e23e 798d 0b3d 8676 ac3e
00000210: 20df 84bc 0f23 ecbc 4dfd e8bb 7166 dfbc
00000220: 8d85 a43e 6d71 8bbd 732f 17bd 3e38 983e
00000230: ec1f f8be c6c9 05bd c01f 46bf f9f7 47be
00000240: 2849 c7bd dd86 82be f539 b33c 534b 48bd
00000250: 5521 5abe d321 053d a91b 5e3d eee2 8cbd
00000260: 8c58 9dbb d630 3cbe 5c8f d13e 16f4 413c
00000270: 5018 543d e72b bcbd 453a aabe 3774 5c3c
00000280: b46d 81be 3095 3b3e e595 fd3e db4e c33e
00000290: 2b4a b03c 1395 1cbe 21ce bcbe 2f23 07bc
000002a0: 67f1 ac3e bb39 71be ae83 4bbe 3d8d 953e
000002b0: b02e 23bc 8dc1 ba3e 6efc 45bf 9ea5 013e
000002c0: 8154 07bc 96b2 c3bd ecdd 4f3e bb11 b1be
000002d0: 3e6a 353e efa4 eebe da80 25be 347b 753c
000002e0: 38cd 57bd 63c9 34be 8cc6 06bd e0db 43be
000002f0: 9e2c 6b3e 63a7 d5bd e86c 79be f412 6c3e
00000300: c335 57bd c14c a13b c6c7 713e 095a 1dbf
00000310: 16af e53d 4bb2 89be 9331 dabd 52f6 323d
00000320: c666 843d b76f a0bd aeaa 16bf 97cf de3c
00000330: 26ae 49bd f77b af3b fd34 fdbc 18d0 cfbe
00000340: 4f70 75be 987b 43be b5e3 d63e 758a a1be
00000350: ca87 413d 20a0 17bf 499a ba3c f9d0 e9be
00000360: a9e0 973e 78cf 493d 475a a73e 7bb2 94bc
00000370: ee96 b43e 0584 c3be 7487 a93d f24d b7bc
00000380: 3889 95bd 54c0 2b3c 33b9 783c e1dc 753e
00000390: 85dd e5bb cc0b 613e 6f63 3fbe c894 17be
000003a0: d966 c2bd ebd7 363e 0491 353e e0c0 393d
000003b0: e8b5 aa3c d4cb 0ebf 3733 843d 8cf3 0e3e
000003c0: 17fa 0d3f 61dc 293e 4233 093b 93eb 08be
000003d0: c5d7 2dbe d1af 273e 3e27 47be 8a9d 223d
000003e0: 8fde 3abb bb46 043f 13cb cdbd fdf4 c73e
000003f0: 99d5 f9bc 0c00 a6bc 11a7 be3e bb18 16bc
0.06473306 -0.22503261 0.3506711 -0.02350939 -0.027680818 -0.4357658 -0.2151685 0.23960184
0.16409194 0.28305987 -0.026463393 -0.16452307 0.37160966 0.028258108 -0.07202195 -0.055467498
0.7303517 -0.03864428 -0.33114406 0.020014115 -0.1442014 0.12071928 -0.11680054 0.08046019
0.19835232 0.36312097 -0.03254912 0.27567196 -0.06400751 -0.07469131 0.08863602 0.1707009
-0.03710778 -0.046847813 -0.22162306 0.0038650706 -0.236478 -0.022452656 0.022125939 -0.0640259
0.105428934 0.38575923 -0.072751336 0.24145786 0.014862762 0.40557632 -0.2253472 -0.028016021
0.055666853 0.0054214695 0.4500322 -0.048205074 -0.16750003 0.005908108 0.19994782 -0.043479566
-0.16918662 0.02631241 -0.00071221474 -0.076298155 0.18037912 -0.06485749 0.35105193 0.25187382
-0.07818727 -0.22279094 -0.014930999 -0.31762862 -0.051143978 0.12552805 -0.20341223 -0.3611171
0.30683175 0.15615416 -0.005047656 0.35888243 0.25647014 -0.032720096 -0.10338103 -0.045048278
0.00525686 0.15893829 -0.010654462 -0.15454389 0.3908668 0.5795017 -0.08480796 0.1615041
-0.41509596 0.19539554 -0.018548042 0.54887813 -0.009388307 -0.010103341 -0.025676388 -0.16948552
0.49617842 -0.6547063 -0.31830826 -0.012236965 0.0410131 0.011181907 0.035480566 -0.64183086
0.018900549 0.002183767 -0.023015285 -0.039656006 -0.5570579 0.024022127 0.30430067 0.3826446
-0.12696292 0.3753643 -0.018161776 -0.6513322 -0.080790594 -0.11194414 0.008302347 -0.0032911766
-0.124864526 0.3638432 -0.011963093 -0.20085649 -0.10479595 -0.0021022677 0.029914284 -0.22631349
-0.3079578 0.4430625 0.034070466 0.33684176 -0.016219676 -0.028825311 -0.007110274 -0.027270528
0.3213314 -0.068087436 -0.036910485 0.2973041 -0.48461854 -0.03266313 -0.77392197 -0.19528188
-0.0973075 -0.25493518 0.021878222 -0.04889996 -0.21301778 0.03250296 0.054225598 -0.06879221
-0.0048018154 -0.18378004 0.40929687 0.01183798 0.051781 -0.09188061 -0.3324758 0.013455442
-0.2527901 0.1831863 0.49528423 0.381461 0.021519741 -0.15291242 -0.36876014 -0.0082481345
0.33777925 -0.23557179 -0.1987445 0.2920932 -0.009959862 0.36475793 -0.773383 0.12660834
-0.008259893 -0.09555547 0.202995 -0.3458384 0.1771631 -0.4661021 -0.16162434 0.014982987
-0.052685946 -0.17654948 -0.032904193 -0.19126844 0.22966239 -0.10432317 -0.2435795 0.23054105
-0.052541506 0.00492248 0.23611364 -0.6146551 0.112150356 -0.2689384 -0.10653987 0.04369194
0.06464915 -0.07833808 -0.58854187 0.027198596 -0.049238347 0.005355354 -0.030909056 -0.4058845
-0.23968624 -0.19090116 0.41970602 -0.31550947 0.04724864 -0.59228706 0.022778647 -0.45667246
0.2966359 0.049270123 0.32686064 -0.018151512 0.352714 -0.3818666 0.08277789 -0.022376034
-0.07301563 0.010482866 0.015180874 0.2401004 -0.0070149326 0.21977156 -0.18690275 -0.1480285
-0.09492273 0.17855804 0.177311 0.045349956 0.020838693 -0.5577977 0.06455081 0.13960093
0.5545973 0.16587974 0.0020935093 -0.13371114 -0.16976841 0.16375662 -0.19448563 0.039701022
-0.0028514003 0.51670426 -0.10048499 0.390541 -0.03049736 -0.020263694 0.37236837 -0.00916117

linear2.bias f4 [3]
00000000: 0054 bb3e aac8 1d3e d2a6 013e
0.36587524 0.15408579 0.12661293
